model_230817.pth (torch, 175549 bytes, 73 tensors)

weight f4 [16, 75]
000000 04 de d3 bc a8 ee 71 bd fa f3 d7 bc 04 1f 9e 3e
       -0.025862701 -0.05906549 -0.026361454 0.30883038
000010 ed 75 8b 3e 48 e1 be 3c 8f 82 f1 bd 52 85 fd 3e
       0.27238408 0.023300782 -0.1179248 0.49515778
000020 91 0c c2 3a 3a ee 88 be 3a ee 8b 3e 3e 83 ca 3e
       0.001480477 -0.26744252 0.2733019 0.39553255
000030 8d b3 06 bc a2 1b 80 3c ea 0e 64 3d bd e0 70 3e
       -0.008221519 0.015638176 0.055678286 0.23523231
000040 33 13 a5 3e 26 d1 8b 3c 3f d9 f1 3d bb 1d f1 3c
       0.3224121 0.017067503 0.118090145 0.029433122
000050 97 e9 59 bd 2e dd 5d bc 97 f4 d6 be 30 e0 9c 3d
       -0.053201284 -0.013541503 -0.41983482 0.07659948
000060 20 ac ba bd 16 a0 05 bd 9e 01 78 3e c6 30 8e bd
       -0.091148615 -0.032623373 0.24219367 -0.069428965
000070 fe 40 0a 3e 54 f2 33 be c9 4e 0b 3f 6f e2 c8 bd
       0.13501355 -0.1757291 0.5441709 -0.09808814
000080 33 92 b6 3d c5 6b 9d 3c af 4b 7d bd 19 34 c6 3d
       0.08914604 0.019216428 -0.061839756 0.096779056
000090 8d 6c 93 3c ef 9b b1 3d 54 d1 4e 3c 34 36 00 3e
       0.017996097 0.0867232 0.01262315 0.12520677
0000a0 f8 27 fe 3c 79 33 f3 3d 10 0d 47 3d 83 d0 b5 3e
       0.031024918 0.11875052 0.04859644 0.35510644
0000b0 fd cb 9f 3d 53 f2 79 bd 5c eb f0 3d 13 c9 b3 be
       0.078025796 -0.061022114 0.11763641 -0.35114345
0000c0 39 30 70 3d 2b 23 90 bd a0 18 ea bd 32 bc 36 bd
       0.05863974 -0.07037958 -0.11430478 -0.04461307
0000d0 3a 63 b5 bd 11 0b c2 3d a6 fe 9f bc 2a a1 4a 3d
       -0.088568166 0.09474767 -0.019530606 0.049470104
0000e0 2e 5d 5e 3d 5a c1 0e be c3 12 b9 3d 2f 06 a8 bd
       0.05428808 -0.13940945 0.09036782 -0.082043044
0000f0 be 3c ee 3b e3 ab f1 3c f0 40 e2 3d df b1 a9 3d
       0.0072704246 0.029500907 0.11047542 0.08285879
000100 d0 06 da bc f9 d5 3a bc 05 23 c4 3d ea 29 8c bd
       -0.026614577 -0.011403554 0.09576992 -0.06843932
000110 cb 9b 8e be 13 2d ad bd f7 77 c0 3d a2 28 1d 3d
       -0.27853236 -0.08455863 0.093978815 0.03836883
000120 90 8c 18 bd 0b ee 87 be 9e 9f a0 bd 39 af 3c be
       -0.037243426 -0.265488 -0.078429446 -0.18426217
000130 79 93 83 3e 69 4e e9 ba 56 ca af bd d4 4b 78 3e
       0.2569845 -0.0017799857 -0.085835144 0.24247676
000140 55 40 74 bd d0 5a 42 bd f1 a9 b0 be 2b 65 ad 3e
       -0.059631664 -0.047449887 -0.34504655 0.33866248
000150 b6 ec a8 3d 67 be 5a 3d 07 53 23 be a5 ed 8a 3e
       0.08248274 0.053404238 -0.15949641 0.27134433
000160 8d ae 6e bd 2c 32 10 3d fa cf ca bd 5f 2b 5d 3e
       -0.058271933 0.035204098 -0.0990295 0.21598576
000170 c9 f5 8c 3d ee 1d 9d 3d ad 7d ab bd 4b 80 7c bd
       0.06882817 0.07671724 -0.0837358 -0.061645787
000180 c6 89 d8 3d 42 77 cd be 89 ac 27 bd c1 d1 e4 bd
       0.10573153 -0.4013005 -0.040936027 -0.1117282
000190 a1 6a 03 3e 66 ae 95 be 79 b6 79 bc f1 88 3d bd
       0.12833644 -0.29234618 -0.015241259 -0.046273176
0001a0 4b ed c4 bd f5 f4 90 bc 90 a1 c8 bd e0 38 82 bd
       -0.096155725 -0.01769493 -0.097964406 -0.06358504
0001b0 f5 f8 ce bd ba 6a 5b bd e6 34 82 3e a1 a9 b2 3c
       -0.101060785 -0.05356858 0.25430983 0.021809401
0001c0 59 93 48 be 4d 90 dc bd 13 ae 20 bc e4 6d 1d bd
       -0.19587459 -0.10769711 -0.0098071275 -0.038434878
0001d0 c5 e4 4e 3e 0d 16 d0 bd 36 14 30 3e f3 50 e9 bd
       0.20204456 -0.10160456 0.1719521 -0.11392393
0001e0 16 fa 70 3d db 44 31 be c6 4a ab 3d 68 3f a0 bd
       0.05883225 -0.17311423 0.08363871 -0.07824594
0001f0 10 52 a2 bd e4 f6 89 bd 13 e5 21 bd b8 a6 ba bd
       -0.079258084 -0.06736544 -0.039525103 -0.0911383
000200 99 48 c6 3d 44 9d 23 be e9 e1 57 3e b8 f6 12 3d
       0.09681816 -0.15977961 0.21082272 0.03587982
000210 38 d4 15 be 82 a7 a3 3d 4b 22 02 bd c8 4c 35 bd
       -0.14631736 0.07990934 -0.031770986 -0.044262677
000220 56 6a dd b9 8f 35 b0 bd 7b 16 07 3e 71 db d0 bd
       -0.0004223163 -0.086039655 0.1319217 -0.10198105
000230 f9 f6 95 3d 9b 12 c2 bd 56 92 af 3d 07 08 d2 bc
       0.07322497 -0.09476205 0.08572833 -0.025638593
000240 ba e9 f8 bd 87 89 e0 3d 98 67 78 3d 57 66 11 3d
       -0.12153955 0.10963731 0.06064567 0.03549799
000250 e5 0d 0e 3e 83 d1 99 bd f2 fc 0b 3e 75 1e aa be
       0.13872488 -0.07510664 0.1367071 -0.33226362
000260 3d b0 85 bd 5e 9b 91 bd d5 1c 78 3e 0b 91 ad bd
       -0.065277554 -0.07109712 0.24229749 -0.084749304
000270 f5 30 25 3e b7 0c 0a 3e 63 e8 18 be 18 d3 6f be
       0.16131957 0.13481413 -0.14932398 -0.2342037
000280 a5 43 81 3e 2c be c8 3e eb a1 07 be c8 66 d0 bd
       0.2524692 0.3920759 -0.1324536 -0.10175854
000290 9f 8b 46 3d 0d ec 85 3e f3 f2 81 be 40 20 cb 3d
       0.048472997 0.26156655 -0.25380668 0.099182606
0002a0 e4 44 a8 3c 1d d7 82 bd dc 62 6f bd c4 b1 b4 bb
       0.020540662 -0.06388686 -0.05844389 -0.0055143554
0002b0 f5 e6 7b bd 9f b7 f1 bc 5b ee 86 bd 6e 9b 9b 3d
       -0.061499555 -0.029506503 -0.065884314 0.07598005
0002c0 e6 2d d9 3e bf ac 28 3d d5 7d b0 3e c2 e1 79 ba
       0.4241783 0.04118037 0.34471002 -0.0009532237
0002d0 cb 65 a1 3e 7b 54 74 3d 67 86 ab 3c 42 6f 28 bd
       0.31522974 0.05965088 0.020938111 -0.04112173
0002e0 fe 18 96 3d 2b 81 3f 3c c8 da 30 3d b4 96 1b be
       0.07328986 0.011688511 0.043177396 -0.15194207
0002f0 d0 7b fa bc e8 4d 17 3f 3f 1a a7 bc 3f da ea 3d
       -0.030576617 0.5910325 -0.020398257 0.114674084
000300 4e 29 97 3d e8 b5 b5 3e 17 96 85 bd 1e dd ef bd
       0.07380925 0.35490346 -0.06522768 -0.11712097
000310 48 3b b4 3d 3b a4 b4 bb 93 69 e3 3c 71 8a 04 3d
       0.088003695 -0.005512742 0.027760303 0.03235859
000320 78 c9 d6 bd c4 8a 2e bd 26 26 c7 3d fa 3e 38 3d
       -0.10487646 -0.042612806 0.09724073 0.044981934
000330 a9 74 c2 bb c1 01 a5 bd 01 e8 45 bd e4 5a af bd
       -0.005934317 -0.08056975 -0.04831696 -0.08562258
000340 3f 2b 1a bd ed b8 1f 3d 56 c9 96 3d e7 e0 55 be
       -0.0376389 0.03899472 0.073626205 -0.20886575
000350 f5 6a eb bc 0b ea 18 bd f1 51 1c be 62 46 40 3e
       -0.028737525 -0.037332576 -0.15265633 0.18776849
000360 01 d6 88 3c e7 f7 f4 bc 7b 8b 34 3e 55 2f a2 bd
       0.016703608 -0.029903365 0.17631333 -0.07919184
000370 62 85 d9 bc 4a 88 ca 3d a3 60 43 bd 47 25 a6 bd
       -0.02655286 0.09889276 -0.04769958 -0.08112579
000380 33 81 33 be 81 74 77 3d f5 94 88 3d 28 f9 89 3d
       -0.17529754 0.06041384 0.06669036 0.06736976
000390 09 2a 0a bc 1f 02 c6 3c f6 10 c0 bd 76 17 13 3e
       -0.0084328735 0.024170933 -0.09378235 0.14364418
0003a0 0e 31 92 3d b0 92 be 3d 7b 2a 85 3e a6 7d 34 bd
       0.07138263 0.09305322 0.26008973 -0.04406514
0003b0 d0 4f eb bc af 55 2a 3d 9d 9c ca bd 99 31 dd bd
       -0.028724581 0.04158562 -0.09893153 -0.108004756
0003c0 04 2e a5 3d 5a 71 eb bd f9 5e be bc 08 22 65 be
       0.080654174 -0.114962295 -0.023238646 -0.22376263
0003d0 f0 5e ac bc db 71 a6 bd 80 85 9a bd e4 b8 44 3e
       -0.021041363 -0.08127185 -0.07544994 0.19211155
0003e0 47 90 0c bd b0 fd 91 3d c2 a0 f0 bc 5e 46 53 3d
       -0.03431728 0.07128465 -0.02937353 0.05158078
0003f0 24 e6 a6 bc 1f 05 95 bd 70 f1 94 be 76 c0 14 be
       -0.020373411 -0.072763674 -0.29090452 -0.14526543

weight f4 [16, 32]
000000 47 dd b1 be cf 8e 82 be 06 07 68 be 2e 9c 02 3f
       -0.34739134 -0.2549958 -0.22658929 0.5101956
000010 c6 04 eb bd 12 ca 8e bd 63 df 5d 3e f7 90 07 3e
       -0.1147552 -0.069721356 0.21667247 0.13238893
000020 d0 f2 63 3e b4 09 6a 3e 6d fc 5b 3e 06 04 28 be
       0.22260594 0.22855264 0.21483012 -0.16407785
000030 72 05 2f 3e 9b 2d fa 3e 16 62 4e be 0e 5d 88 3e
       0.17091921 0.4886292 -0.20154604 0.26633495
000040 2f 08 6f 3e 6b cf 8e 3d 76 13 37 3e 2f 62 e0 bd
       0.23342966 0.069731556 0.17878518 -0.10956227
000050 9d 1b 82 be 52 84 0b 3e 4c f3 66 3d ca f5 23 be
       -0.25411692 0.13624695 0.05638437 -0.1601173
000060 62 ee c5 3d 98 69 9b bd 30 23 ec 3e 8b 58 d8 3e
       0.096646085 -0.075885 0.46120596 0.42255053
000070 55 ae a9 3b 52 55 55 be 5c 46 3e 3e e3 af 92 bc
       0.0051782527 -0.20833328 0.18581527 -0.017906135
000080 37 62 55 3e dd 41 f5 3d 79 8a 61 3e d0 3c d2 bc
       0.20838247 0.11975453 0.2202548 -0.025663763
000090 50 0f db bd b1 3a 96 3d e6 c3 65 3d b8 67 09 3e
       -0.1069628 0.07335413 0.056095026 0.13418472
0000a0 72 8a 1f be 75 ef 95 3e 4a 86 9e 3e 63 31 aa be
       -0.15580156 0.29284254 0.3096183 -0.33240804
0000b0 70 8a c0 3e ac 2c 93 3c b4 bd 44 be 13 7f 70 3c
       0.3760562 0.017965637 -0.19212991 0.014678734
0000c0 80 91 14 be 15 27 83 3d 70 a2 5e bc 16 61 a7 be
       -0.14508629 0.06403939 -0.013588533 -0.32691258
0000d0 e0 4d c3 bd 25 ca bb bd 31 c7 84 3d 49 e8 99 3e
       -0.09536338 -0.091694154 0.06483305 0.30060032
0000e0 b8 d8 77 be 52 5e e0 3e 65 36 9a 3d 66 be 63 be
       -0.24203765 0.4382196 0.07529906 -0.222406
0000f0 ed b9 f3 3c 88 84 7d 3e 71 ef 9a be 75 fd 9d be
       0.029751742 0.24757588 -0.30260804 -0.30857435
000100 aa 54 cb 3e ee 8d 08 3f 66 5b 6f be ea 61 a6 3e
       0.3971303 0.5334157 -0.2337471 0.32496578
000110 9e 93 35 3e d1 14 26 be ff a2 d6 bc 3f c6 3e 3e
       0.17732093 -0.16218878 -0.02620077 0.18630312
000120 5b b1 5d be 76 f4 93 3d 32 c4 db be 58 76 83 3e
       -0.21649687 0.072243616 -0.42923123 0.25676227
000130 8d 37 b3 3e 20 5f 65 3e 80 b6 ef 3c 98 76 34 3e
       0.3500332 0.22399569 0.029261827 0.17623365
000140 dd 25 d8 be ae d7 e4 bd 9b 66 38 3d 8d 63 65 bd
       -0.42216387 -0.1117395 0.045019727 -0.056003142
000150 82 b5 40 be ba 94 7f 3e 60 6d fa 3e e3 84 56 be
       -0.1881924 0.24959078 0.48911572 -0.2094913
000160 18 4f 10 3d 6d b7 b2 3d 91 a9 c9 3e c0 69 d4 3e
       0.03523168 0.08726392 0.3938718 0.4148693
000170 ea 4a d2 3e 5a 79 6b be c2 b7 76 3e e5 99 78 3d
       0.4107278 -0.2299551 0.24093536 0.06069364
000180 a7 b8 1a be d5 97 bc be 0c 0d 9e bd ab f1 a8 bc
       -0.15109502 -0.3683459 -0.07717332 -0.020623049
000190 e7 b8 8d be f7 22 44 bd b0 ab 24 be 4c 6d 51 3d
       -0.27680132 -0.047884908 -0.16081119 0.051129624
0001a0 ab e9 b2 be 82 09 18 3d 5a ff 7c 3e 72 6d 84 be
       -0.349439 0.037118442 0.24706784 -0.2586475
0001b0 63 35 41 3e cc 6b 0b bd 45 8d 62 3e 29 4e dc 3e
       0.18868022 -0.03403835 0.22124203 0.4302838
0001c0 77 e3 89 3e c0 d2 d6 bd 5d f7 a5 3e 82 94 7e be
       0.26931354 -0.10489416 0.32415286 -0.24861339
0001d0 c2 f8 41 3c 51 51 b4 bd 5f 56 24 3d 29 0f 44 bd
       0.011839094 -0.088045724 0.040121432 -0.04786602
0001e0 98 f4 c1 be 6f 55 41 3e ab 61 7a bd a3 01 fd 3d
       -0.37881923 0.18880247 -0.0611283 0.12353828
0001f0 db c2 a3 be d5 66 af be a2 6d 21 ba c8 71 d3 3e
       -0.319846 -0.34258142 -0.0006157999 0.41297746
000200 70 15 d4 be 48 06 2a 3d 22 53 d4 be 7c 77 38 3e
       -0.41422606 0.041509897 -0.41469675 0.1801433
000210 ed ca bd 3e 31 63 a4 3e 77 46 6e be 72 0c 45 3e
       0.37068883 0.32106927 -0.23269068 0.19243029
000220 8f fb 50 3e d0 f1 b9 bd 44 51 db 3e 46 8e 62 be
       0.20408462 -0.09079325 0.42835438 -0.22124586
000230 15 81 c6 bb 62 cd 36 be f2 7e 85 bd 96 61 57 3e
       -0.0060578682 -0.17851785 -0.065183535 0.2103332
000240 bc bb f5 3d 1b 7f 58 bd 6d f7 73 be 83 3b f0 3d
       0.11998698 -0.052855592 -0.23824854 0.11730101
000250 22 60 a9 be 28 82 e0 bc 86 fb e4 3c 95 ef 8f bd
       -0.33081156 -0.027405813 0.027951967 -0.070281185
000260 c5 04 0d 3e ce 4e 3f 3e 80 8c ef 3e e6 c1 8b 3b
       0.1377135 0.18682405 0.4678688 0.004265058
000270 70 f1 73 be c7 e2 2f 3e 6a f8 8f 3d 07 0c 52 be
       -0.2382257 0.17176352 0.07029803 -0.205124
000280 da 1f 86 be 57 a6 a8 3d ea 1d a0 be ed fd 25 bd
       -0.26196176 0.08234852 -0.31272823 -0.040525366
000290 7a e8 04 3e 0b a5 cb be 1d 9f bf be 54 18 b6 be
       0.12979308 -0.39774355 -0.3742608 -0.35565436
0002a0 61 e0 c6 3e 8f b3 b2 3e 83 da 37 3d ab 3b 6c 3e
       0.38843063 0.34902617 0.044886123 0.23069637
0002b0 c6 7b 4d be d7 18 e0 be 10 34 53 3e 0d f0 e1 3d
       -0.20066747 -0.4376895 0.20625329 0.11032114
0002c0 46 a0 ae 3e 87 23 9c 3d af 23 c3 3e 1b de 5c 3e
       0.34106654 0.07623964 0.38113162 0.21569102
0002d0 27 13 39 3e 02 0c d5 be 4e a4 b5 3e 2c df a3 be
       0.18073712 -0.41610724 0.35476917 -0.32006204
0002e0 34 a3 0c 3f 3f 1e bd 3b a8 20 b6 be 1c bb 24 3d
       0.5493653 0.005771428 -0.3557179 0.040217504
0002f0 16 68 c2 bd 97 a5 05 be f9 19 de bc 48 4e 13 3e
       -0.09492509 -0.13051449 -0.027111994 0.1438533
000300 81 5e a0 3e 6c c1 9e 3d c0 35 b5 3e c9 96 44 3e
       0.313221 0.07751736 0.3539257 0.19198145
000310 2d dc 47 3e 77 bb b7 3d 45 40 35 be be 73 df be
       0.19517584 0.08971303 -0.17700298 -0.43642992
000320 34 be 25 be 40 f7 98 be cc ac 6f be 5d c9 1c bd
       -0.16185838 -0.29876137 -0.2340576 -0.038277972
000330 9b 0c af be ce f3 28 be 0e 46 66 bd d4 91 c5 bd
       -0.34189305 -0.16499254 -0.056219153 -0.09646955
000340 38 33 84 be 25 da ee 3d 73 ae dc 3d 81 0c 80 3e
       -0.25820327 0.116627015 0.10775461 0.2500954
000350 9d 1c 09 bd 0d 59 1c be 09 7f a9 bc 23 f0 fd bc
       -0.033474553 -0.15268345 -0.020690458 -0.030998295
000360 07 5e 83 3c d3 5a 56 ba 91 30 c0 3d 13 9b 19 3e
       0.016036047 -0.0008176986 0.09384263 0.15000562
000370 e0 1c 27 3e a1 7a b9 3e 6b d1 e1 3b fc 3c bb be
       0.16319609 0.3622637 0.0068914196 -0.36569965
000380 0d c1 a0 3d 80 75 d9 bd 35 96 f2 bc 65 41 47 bc
       0.078493215 -0.106181145 -0.02961264 -0.012161587
000390 86 03 2a bd 28 72 c1 bd 71 76 26 3e 21 81 45 3e
       -0.041507266 -0.09445602 0.1625612 0.1928754
0003a0 ac 7d d5 3d 88 c0 1d 3f 60 2a c3 bd a1 63 4d be
       0.10424361 0.61621904 -0.09529567 -0.20057537
0003b0 a0 80 97 3e e4 a7 5a 3e a5 7d 51 be 57 8d 03 3e
       0.2959032 0.21353108 -0.20458086 0.12846886
0003c0 04 5a 8b be b4 3f 96 3c 33 c3 df 3c 62 db 55 be
       -0.27217114 0.018340923 0.027314758 -0.20884469
0003d0 6d ac b2 be a8 31 a0 be 6a bd d3 3e 24 7e f7 3d
       -0.34897175 -0.31287885 0.4135545 0.12084606
0003e0 34 9a 97 be ce 10 10 3d 86 85 47 bd 13 8e 79 be
       -0.29609835 0.035172276 -0.048711322 -0.24370603
0003f0 96 52 3a 3e fa bf 0e 3f 94 d1 6a 3d 88 95 c4 be
       0.18195567 0.55761683 0.057328776 -0.38395333

bias f4 [32]
000000 ab 10 da bd bd 57 8f bd 98 53 09 3c f5 8a a7 3c
       -0.106477104 -0.069991566 0.008381747 0.020452002
000010 9f 8f 5f 3a fc 8e 8e bd fc 34 a1 3d 9a fd fb 3d
       0.0008528176 -0.06960866 0.07871434 0.1230423
000020 c1 89 bd bc f7 8e b7 3c 21 89 3e bd 84 ec 3d bb
       -0.023136975 0.022407038 -0.046517495 -0.0028980086
000030 6d 03 39 bd b6 4c 29 3d 53 fb cd bd 8d 44 81 bd
       -0.045169283 0.041332923 -0.10057702 -0.06311903
000040 28 73 7d bc 82 1e 1f be 4d f4 37 be d7 fa 93 bd
       -0.01546935 -0.15538982 -0.17964287 -0.07225578
000050 ba 31 56 3e a3 73 39 3d ba 01 36 be 0b 56 6a 3d
       0.20917407 0.045276295 -0.17774096 0.057210963
000060 cc 0d 0e be 24 95 2a be b3 85 df bd 6c e6 d5 3e
       -0.1387245 -0.16658455 -0.10914173 0.4177736
000070 ae ad 09 bb 96 cd 14 3e fd f0 1d 3d 7b 67 9b 3c
       -0.0021008062 0.1453155 0.038559902 0.018970242

weight f4 [32, 16]
000000 fc b9 e0 bd c1 8a b8 3c aa 81 13 3e f3 c6 40 be
       -0.10972974 0.0225271 0.14404932 -0.18825893
000010 da 28 55 bd 37 69 70 bd 9f bb 8c 3d 6c 76 69 be
       -0.052040912 -0.05869409 0.068717234 -0.2279908
000020 ef a7 dc bd 05 f2 97 3e d7 16 0c be 22 25 88 be
       -0.10774218 0.29676834 -0.13680588 -0.2659083
000030 61 51 8b be 34 15 4e 3e 61 63 89 3e a9 17 78 be
       -0.27210525 0.20125276 0.26833633 -0.24227776
000040 75 28 49 3d 08 17 6a be f8 6e a2 be 47 cf 99 3e
       0.04911085 -0.22860348 -0.31725287 0.30040953
000050 a5 9e 0c 3d 98 63 2c 3e fb c5 82 bd 10 ac 90 bc
       0.034330983 0.16834867 -0.06385418 -0.01766017
000060 ad 18 de bc e7 ba 90 be 15 8d 74 be 33 ef 6f 3e
       -0.027111376 -0.28267595 -0.23881944 0.23431091
000070 e3 81 19 3d 30 18 38 be 33 d6 99 be 94 8e 39 3e
       0.037477385 -0.17977977 -0.30046234 0.18120795
000080 ca 16 b3 3d 5f 4b c6 3c c6 bf b6 bd ad 8c a7 3e
       0.08744581 0.024205862 -0.08923297 0.32724515
000090 96 c2 59 be 6b af 6d 3e e5 e6 9e 3d a4 02 5f 3e
       -0.21265635 0.23211448 0.077588834 0.21778351
0000a0 14 2d 2c be f2 21 b0 3e b5 15 46 be 2d 98 0f bc
       -0.16814071 0.34400898 -0.19344218 -0.008764309
0000b0 e3 bd dd 3d 53 c9 2d be 25 c2 0f 3e 7f cf 86 3e
       0.10827234 -0.1697133 0.14038904 0.26330182
0000c0 ee b1 80 bd 65 d2 03 be 50 f8 09 be 73 d9 87 bd
       -0.062839374 -0.12873228 -0.1347363 -0.06633272
0000d0 9f f1 32 be 2d 45 54 be cc e8 9f 3d 67 5e 20 3e
       -0.17474984 -0.20729513 0.07808074 0.15661012
0000e0 30 b6 1b bc 93 29 b6 3d 07 2c 4e 3e 09 39 91 be
       -0.009503886 0.088946484 0.20133983 -0.28363827
0000f0 3c 44 68 be 71 09 7e 3d 59 e9 13 3e 92 ae 67 3d
       -0.2268228 0.062020723 0.14444484 0.056562968
000100 05 79 cb bd a0 54 e2 be f7 b1 52 3d 8d b5 9d be
       -0.09935192 -0.4420519 0.05143925 -0.30802575
000110 bb 51 2c 3e 7f 55 9d 3c 27 96 4d bc be b4 11 bc
       0.16828053 0.019205807 -0.012548006 -0.00889319
000120 b2 84 0b be e7 8b 7c 3e cf 88 00 3d 3c 72 e6 3c
       -0.13624838 0.24662744 0.03138047 0.028130643
000130 80 0d 60 be 70 35 76 be bb 29 5e 3d 2c ee a1 bd
       -0.2188015 -0.24043822 0.054239016 -0.07906756
000140 4c d4 6d be 47 bb f1 3e 47 6e ca bd ec ac 67 be
       -0.23225516 0.47213194 -0.09884315 -0.22624558
000150 e6 ea ac 3d 65 ee e3 be 08 60 05 3e 9d 81 03 3d
       0.08443241 -0.44517818 0.13024914 0.03210603
000160 b2 6f 98 3d 6f 0e cb be 81 4c 5d 3e 48 bd 19 be
       0.07443179 -0.3965945 0.21611215 -0.15013611
000170 5c 47 f9 3d 86 71 7d 3c 66 2e b4 bd 3d 18 01 be
       0.12171814 0.015468961 -0.08797912 -0.12606902
000180 d3 df fc 3e c7 af a5 3c c8 ac 14 be 19 d0 bd be
       0.49389514 0.020225419 -0.14519036 -0.37072828
000190 95 e5 14 be 9a 54 9c 3d 35 db 85 bd 05 dd e0 3e
       -0.14540704 0.07633324 -0.06535951 0.43918625
0001a0 0a 31 10 be eb fd 56 be 61 62 48 3e 87 1e 85 3e
       -0.14081207 -0.209953 0.19568779 0.25999853
0001b0 c4 26 d8 be e2 e9 f1 3e 24 eb af 3d df bb 80 3d
       -0.42217076 0.4724875 0.085897714 0.062858336
0001c0 e0 37 c6 3e e2 1b b5 bd c5 58 48 3e 3d 2f 83 be
       0.38714504 -0.08843209 0.19565113 -0.25621977
0001d0 19 14 88 3b 16 cc cd 3d d0 ca b5 3d 55 74 5e bd
       0.0041527865 0.10048692 0.08876574 -0.05431016
0001e0 f7 33 dd bd 1c d5 95 be b6 6e 99 3e c3 35 11 3d
       -0.10800927 -0.29264152 0.29967278 0.03545166
0001f0 ef 7c 05 be 50 17 1f 3e ea be e3 3d 88 0a 1a 3e
       -0.1303594 0.15536237 0.11120398 0.1504308
000200 d5 49 67 be 64 05 9a 3e 07 fa 39 3e 59 f5 8d 3d
       -0.22586758 0.30082238 0.18161784 0.06931562
000210 04 79 f3 bd ca 3d 14 3e 4e a4 22 3d 58 2d 4c 3e
       -0.11888316 0.14476696 0.039707474 0.19939172
000220 34 dc 83 3e 41 72 6c be 4d e5 25 be a9 eb 12 be
       0.2575394 -0.2309046 -0.16200753 -0.1434771
000230 e8 e3 43 3d 30 61 34 3e 3d 6e a4 bd fe ab fb 3d
       0.04782477 0.17615199 -0.08028839 0.12288664
000240 b5 56 19 be d0 30 70 be a7 13 5e be 79 41 03 3e
       -0.14974482 -0.2345612 -0.21687184 0.12817945
000250 68 28 68 3d be 9b ff bd 07 ad cc 3d cd 8f 3f 3e
       0.05667916 -0.12480877 0.0999394 0.187072
000260 99 d2 46 be 0b 94 22 3e 17 ce 80 3b a3 ea 90 3c
       -0.19416274 0.15876786 0.003930818 0.017690009
000270 4e 7a 77 3e 5a be 6e 3e eb 6e b5 3d 5d 2f 3e 3e
       0.2416775 0.23314801 0.088590465 0.18572755
000280 7d 17 fb bc ad 27 79 3c ca 61 ca be d8 55 b7 bd
       -0.030650849 0.015207213 -0.39527732 -0.0895192
000290 a8 2f 12 be 59 2f 6b 3e 63 32 25 3e f4 df d9 3c
       -0.14275992 0.2296728 0.16132502 0.026596047
0002a0 10 1a 77 bd 8d 5a a2 be 4e 79 85 3d 77 a7 2c 3e
       -0.06032759 -0.3170971 0.06517278 0.16860758
0002b0 ea 97 5a 3e 05 76 00 be 8c e2 07 be 65 ca af bd
       0.21347013 -0.12545021 -0.13270015 -0.085835256
0002c0 ca 9b 86 3e ae 9b 51 bd 58 32 42 3e f0 be 68 3e
       0.26290733 -0.05117386 0.18964517 0.22729087
0002d0 0e cc 2a be f7 78 06 3e 95 02 85 bc dc 88 f8 bd
       -0.16679403 0.13132082 -0.016236583 -0.12135479
0002e0 65 7c e7 3d 71 eb 93 bd 03 cb 35 3e e5 17 04 be
       0.11303023 -0.07222641 0.17753224 -0.1289974
0002f0 1a 0f ac 3d 59 0d fc bd 02 5f 3f be ef cc de 3d
       0.08401318 -0.12307233 -0.18688586 0.10878932
000300 ea 8f c3 3d 97 29 47 3c 6e e9 b5 be 05 34 2f 3e
       0.09548934 0.012155912 -0.35529655 0.17109688
000310 80 8d b7 bd e3 7e bd 3d 0f b7 90 bd 18 d8 da bd
       -0.08962536 0.09252717 -0.07066166 -0.10685748
000320 4d 71 8c 3e 23 03 43 be 47 6a be be 33 31 1f 3e
       0.27430192 -0.19044165 -0.37190458 0.15546112
000330 4c 55 e6 3d f7 63 8f be 1d 89 53 3e c6 97 bb bd
       0.11246738 -0.28005955 0.20657773 -0.09159808
000340 93 72 55 bc 91 8e 18 be 55 85 a1 bd 34 e7 b0 bb
       -0.013027805 -0.14898135 -0.07886759 -0.0053986553
000350 44 5d 7b 3e 3d 28 3c be b3 d5 96 3c 34 80 0f be
       0.24547297 -0.18374725 0.018412447 -0.1401375
000360 fe 3a 46 3e 2f cc f8 3d 58 f5 25 be 76 cd 75 be
       0.19358441 0.1214832 -0.16206872 -0.24004158
000370 3e 48 84 be 09 ae 59 3d 83 98 82 be 2f af f3 bd
       -0.25836366 0.05314449 -0.25506982 -0.11898648
000380 d2 69 84 3e 3d c2 9c be ae d5 da 3d ed 7c 79 3d
       0.25861984 -0.30616942 0.106852874 0.060910154
000390 56 44 5c 3e c6 8d e5 bd 8a 2e 04 3e 1a ef cf 3d
       0.21510443 -0.11208682 0.12908378 0.10153027
0003a0 3f a7 7c 3d 8a 00 ff 3d e9 29 85 be 23 e4 9e bd
       0.061682936 0.12451275 -0.26008537 -0.077583574
0003b0 0d 65 1a 3e b8 df 6b bd fa 3a 78 be 6a 89 8e 3d
       0.1507761 -0.0575864 -0.24241248 0.069598034
0003c0 40 15 ac bd 1e 46 eb 3c 87 3f d6 bd b2 b8 b7 3d
       -0.084024906 0.028719958 -0.10461336 0.08970775
0003d0 2c b4 1b be 9f 32 a7 3c cb 46 51 3e 9b 41 e3 3d
       -0.15205449 0.02040988 0.20437162 0.110964976
0003e0 13 44 09 3d 32 48 25 3d d5 ec c6 bd 13 90 46 bd
       0.033512186 0.040352054 -0.09713141 -0.048477244
0003f0 1f e2 33 bd c4 b5 2b be c4 cb ff bd db 68 67 3e
       -0.043916818 -0.16768557 -0.12490037 0.22598593

bias f4 [32]
000000 1e 84 15 3d 08 b0 08 3e 13 11 5b 3d d3 0d ac 3e
       0.03650295 0.133484 0.05348308 0.33604297
000010 a1 80 da 3d 3a 45 69 be f6 cc 92 3d e3 b5 2f be
       0.10669065 -0.22780314 0.071679994 -0.17159228
000020 f7 21 58 be 28 0f 74 be 6d db 95 3c 38 fc 8c be
       -0.21106707 -0.23833907 0.018293107 -0.27536178
000030 18 1e 1a 3f b5 45 4d 3e df de 91 be 86 da 98 be
       0.6020217 0.20046122 -0.2849035 -0.2985422
000040 58 ca 3c 3d 5e f9 6f be 94 28 39 3d 47 ce c5 bd
       0.046091408 -0.2343497 0.045204714 -0.09658485
000050 56 ef 39 3e 74 be 16 be d1 d8 63 be a3 1d 89 be
       0.18157706 -0.1472109 -0.22250678 -0.26780424
000060 ca a7 15 3e f2 93 b0 bd 2a 0a 84 be c1 18 75 be
       0.14614788 -0.08621968 -0.25789005 -0.23935224
000070 2d 93 d9 bd f3 b3 66 be 47 1b 45 3d ea ca 1f 3e
       -0.10623775 -0.22529583 0.048121717 0.1560475

weight f4 [32]
000000 4e af 65 3f 97 fe 9a 3f 26 18 6f 3f 17 1d 84 3f
       0.8972062 1.2108945 0.9339622 1.0321378
000010 f7 f9 80 3f 7a 09 82 3f 7c ed 76 3f 23 0a 7d 3f
       1.0076283 1.0159142 0.9645612 0.9884359
000020 8f a3 5d 3f aa 01 87 3f bd 8a 9f 3f ad 0e 5f 3f
       0.86577696 1.0547383 1.2464215 0.8713177
000030 cf 0a 8b 3f ef 15 65 3f a4 69 6e 3f 98 16 8e 3f
       1.0862674 0.89486593 0.93129945 1.1100645
000040 ed b5 83 3f 34 39 80 3f da 7a 81 3f 65 ae 77 3f
       1.0289894 1.0017457 1.0115616 0.9675048
000050 d1 d0 72 3f 11 5c 65 3f 6c 8f 6e 3f 4f 4c 6d 3f
       0.9484988 0.8959361 0.93187594 0.9269456
000060 ff 7a 6a 3f a7 9f 99 3f 2b 2a 9e 3f 96 b0 6e 3f
       0.9159393 1.2001847 1.2356619 0.932382
000070 eb 19 6e 3f e0 d3 4a 3f 04 a6 83 3f 10 43 98 3f
       0.930083 0.79229546 1.0285039 1.1895466

bias f4 [32]
000000 c9 fb 07 3e 25 4c 20 3e de d0 33 be 92 22 10 bd
       0.13279642 0.15654047 -0.17560145 -0.03518922
000010 d0 83 cb 3d 3a 74 d8 3d a2 56 1a 3a ee 4e 6b 3d
       0.099372506 0.105690435 0.0005887543 0.05744832
000020 ef 7d d9 3d 95 f5 1c bd 80 a6 c4 3d 1f b0 da bc
       0.10619723 -0.038320143 0.0960207 -0.02669531
000030 e9 55 0d 3e dd 22 e4 39 36 55 f7 3d cc 8d e8 bc
       0.13802303 0.00043513524 0.120767996 -0.028387927
000040 d4 6f 38 3e 30 b0 cf bd 3f 54 df bd bc ba 90 3e
       0.18011409 -0.10141027 -0.109047405 0.28267467
000050 f1 90 0c bc f4 5b d1 3d 20 ca 0c bd f0 be 0a 3e
       -0.008579479 0.10222617 -0.03437245 0.135494
000060 66 99 a1 bc ab 75 a4 3d 7d d3 94 3e 18 0d 46 3d
       -0.019726466 0.08030256 0.29067603 0.04835233
000070 6e 11 6b 3d ad 4d 18 be f2 3d 0b 3c cb 56 fb bb
       0.05738967 -0.14873381 0.008498656 -0.0076702586

running_mean f4 [32]
000000 bb 80 ef 3d a5 9e 38 3e 01 fa 1d 3e 4e 1c d7 3e
       0.11694475 0.18029268 0.154274 0.42013782
000010 94 67 af 3e 69 14 8b 3b 19 8f d0 3d 95 cd 5d 3c
       0.3425871 0.0042443764 0.10183544 0.013537784
000020 55 2d cf 3b 0e ef 08 3b d8 0c ba 3d a6 0f f8 3d
       0.0063225427 0.002089444 0.09084481 0.1211236
000030 d3 71 33 3f 5a ae 6e 3e 53 51 d1 3c fc 52 0e 3c
       0.70095557 0.23308697 0.025551474 0.008686777
000040 f8 4f e3 3c 0d 8e 02 38 19 39 e9 3d 98 24 2d 3e
       0.027748093 3.112671e-05 0.11387844 0.1690849
000050 38 85 4d 3f 4f 71 57 3d e6 84 18 38 52 ba 83 3e
       0.802814 0.052598294 3.6363395e-05 0.2572809
000060 04 f9 68 3e 2a c4 fa 3b da 89 1a 3c 38 28 df 3e
       0.22751242 0.007652779 0.00943228 0.43585372
000070 19 e1 1d 3e 16 af 88 3e b6 76 a9 3d 78 05 ce 3d
       0.15417899 0.2669608 0.082745954 0.10059637

running_var f4 [32]
000000 35 d0 3b 3c 7e bf 91 3d 07 9f 2a 3b 74 9f 26 3b
       0.011463215 0.07116602 0.002603473 0.0025424631
000010 43 c6 3e 3d 51 d1 d0 3b 36 1d 46 3d f8 ff 52 3c
       0.046575796 0.0063726087 0.0483677 0.0128784105
000020 85 4e 75 3b 96 9b ac 3a 32 65 c8 3c 56 98 ec 3d
       0.0037430834 0.0013168927 0.024462316 0.11552493
000030 45 81 f9 3c ef ad 49 3c e1 80 bf 3c a1 c9 df 3b
       0.030457148 0.012309535 0.023376884 0.006829456
000040 3c 72 45 3c 44 0b 23 38 2b de 79 3b fd e7 09 3e
       0.012051161 3.887272e-05 0.0038126807 0.13467403
000050 d7 c7 1a 3e c9 93 ae 3d 92 f6 48 38 e8 94 d8 3d
       0.15115295 0.085242815 4.7913352e-05 0.105752766
000060 33 fc 58 3c 88 e0 d0 3b a1 37 18 3c 92 f7 22 3d
       0.013243723 0.0063744225 0.009290607 0.039786883
000070 c6 be 44 3d 74 34 29 3b f8 61 ac 3d 45 88 78 3c
       0.0480335 0.0025818618 0.084171236 0.015169208

weight f4 [32, 32]
000000 09 0a 54 3d 31 41 f6 bd 64 81 b1 3c c6 07 6b bd
       0.051767383 -0.12024153 0.021668144 -0.05738046
000010 18 60 08 be 10 43 f2 bd 92 60 b4 3e 2c c9 a5 be
       -0.13317907 -0.118291974 0.35229927 -0.32380044
000020 8e b3 d5 3d a5 68 60 3c c9 13 bf bd d6 41 d8 be
       0.10434638 0.013696824 -0.093299456 -0.4223773
000030 f6 d9 f8 3d f6 be a2 3e 5f e3 b7 bd 74 86 41 3e
       0.12150948 0.31786317 -0.089789145 0.18898946
000040 e7 3e 40 3e b0 1b d5 3d 83 85 ad bb 65 93 d6 be
       0.18773995 0.104056716 -0.005295457 -0.41909328
000050 76 a7 68 be bb 08 7d be 81 b7 3e 3c 8e 3e 90 be
       -0.22720131 -0.24710362 0.01164043 -0.28172725
000060 47 1a 70 be 80 ff 83 3c 15 59 09 be 0a d8 8f 3c
       -0.23447524 0.016113043 -0.13412888 0.01755907
000070 65 63 40 3a 41 7a 97 bd d6 22 67 3d e7 0e 82 be
       0.00073390297 -0.07396365 0.056429707 -0.25401995
000080 b1 23 d6 bd 15 d9 9c 3e 49 b1 c3 3e 68 13 73 be
       -0.10456026 0.3063437 0.38221195 -0.23737872
000090 0e ac 2a be fb d0 92 bd 0f 59 97 bd c7 dc 2a 3e
       -0.16667196 -0.07168766 -0.073900335 0.16685782
0000a0 68 54 81 3e 18 a8 22 be 39 ad ba be b7 73 be be
       0.2525971 -0.15884435 -0.36460283 -0.37197658
0000b0 61 9e 9e 3d 64 ec 92 bd 56 6e 45 be 6d 1d 03 bf
       0.07745052 -0.07173994 -0.19280371 -0.51216775
0000c0 47 f7 04 3d 91 85 81 be dc e4 7a be b6 f7 b4 be
       0.032462385 -0.25297216 -0.24501365 -0.35345238
0000d0 13 74 31 be 70 92 da 3e 81 ae 2b 3e 9e c0 0d be
       -0.17329435 0.42689848 0.16765787 -0.13843009
0000e0 53 e3 30 be b5 e5 f9 3d 59 36 10 be 14 40 e1 be
       -0.17274217 0.12202016 -0.14083232 -0.439942
0000f0 62 97 29 be d4 e0 4a bd 6b c9 c6 bd e4 4e 30 bf
       -0.16561654 -0.04953082 -0.09706386 -0.6887038
000100 ea 34 be 3d 44 83 4a be 17 ab b5 3e 46 16 b5 3e
       0.09287436 -0.19776636 0.35482094 0.35368556
000110 1e 8b b7 3d 26 59 06 be 04 57 72 bd ab 15 b9 bd
       0.089620814 -0.13119945 -0.059165016 -0.09037336
000120 b8 80 94 be 57 a1 cd bd 85 1a 0a 3d 18 df 23 be
       -0.29004455 -0.10040539 0.033716697 -0.16003072
000130 85 d2 d5 be 50 40 0f 3e 0f 42 68 3e e0 ae 02 3a
       -0.41762176 0.13989377 0.2268145 0.0004985165
000140 8f d6 86 3d fe a8 bf bb dd 2f 6c be 36 56 bd bd
       0.065838926 -0.005849003 -0.23065133 -0.09244959
000150 22 2f 59 3e a5 25 43 bc 36 ca 08 3d 21 79 4a bd
       0.21209386 -0.011910831 0.03339597 -0.049431924
000160 dd 36 b3 3e 41 2b 4b 3e 78 98 91 3c 64 be 03 bc
       0.35002795 0.19840719 0.017772898 -0.008040998
000170 c1 68 d0 bd ca db 5e be e4 43 57 bd ac 5c 5c bd
       -0.1017623 -0.2176353 -0.05255498 -0.053799316
000180 20 ba 78 3d 35 b7 55 3e 44 f4 4c be ca 6f 9c bc
       0.060724378 0.20870669 -0.20015055 -0.019096274
000190 08 ac 89 3e 88 f3 91 3d eb 9d bc bc 3f fb 8d 3d
       0.26889062 0.07126528 -0.02302452 0.06932687
0001a0 f6 85 17 3e ab 29 20 be d9 65 4d 3d ec 7b 4c be
       0.14797196 -0.15640895 0.050145958 -0.19969147
0001b0 5e 9f 08 3e a2 28 d6 3e c5 87 98 bd 7d 50 cf 3e
       0.13342044 0.41827875 -0.07447771 0.40491095
0001c0 31 d0 36 be 81 ee cc 3e 20 85 a9 3e a8 00 35 3d
       -0.17852856 0.40025714 0.3310938 0.04419008
0001d0 07 2a 60 be 0f 3a 0c be 64 86 09 be 18 37 31 be
       -0.21891032 -0.13694023 -0.13430172 -0.17306173
0001e0 ad 01 3b be d3 9e f6 3d 9a 24 3d be cd e5 11 be
       -0.18262358 0.12042012 -0.18470994 -0.14247818
0001f0 40 92 6d 3c 4e 55 6a be 5a 27 99 be 26 b2 19 bd
       0.014500201 -0.22884104 -0.29912835 -0.03752341
000200 f8 7c c5 bc a8 85 7d 3e 12 d4 72 3e 71 e8 a7 be
       -0.024107441 0.24758017 0.23713711 -0.32794526
000210 6a 7a 53 3e 1d 16 40 be 07 5b da be c1 f6 89 3d
       0.20652166 -0.18758436 -0.42647573 0.06736518
000220 f4 b0 0f bc 37 cb 24 be 41 42 9a be 5e 1d 07 be
       -0.008770216 -0.16093145 -0.30128673 -0.13194796
000230 8b 5f e4 3e 49 ae 5c 3e 87 e6 36 be dd 89 83 be
       0.44604144 0.2155086 -0.17861377 -0.2569112
000240 34 6c f1 bd c0 4f fb bd bf 09 59 bd e3 42 b8 3d
       -0.11788216 -0.122710705 -0.05298781 0.08997133
000250 51 b7 e4 3d 64 b4 aa bd 49 07 6d 3e 09 f9 b8 be
       0.11167777 -0.08335188 0.2314731 -0.361275
000260 f8 89 9b be 17 b0 d0 3d a5 32 a5 be ab 80 16 be
       -0.303787 0.101898365 -0.322652 -0.1469752
000270 37 09 ac 3e 1d 34 29 3c 30 92 b4 be eb 3b e3 bc
       0.3360078 0.010327366 -0.35267782 -0.027738532
000280 cb ef 93 be 68 c7 82 3e 07 ec 84 bd 12 bd bd 3e
       -0.28893885 0.2554276 -0.06490331 0.37058312
000290 e3 e2 16 be 73 db 30 be 0c d7 3e be 7a 5b a5 3d
       -0.14734988 -0.17271213 -0.18636721 0.080740884
0002a0 4e 38 5b 3d 91 77 9b 3e 78 b9 b6 3d 88 e3 81 be
       0.053520493 0.3036466 0.08922094 -0.25368905
0002b0 2e 9a 8d 3d 84 27 d1 bc df 48 1b be 6a 21 97 3b
       0.06914173 -0.025531538 -0.15164517 0.0046121376
0002c0 e8 8b 80 be 89 40 b6 3e 5d ea 18 be b8 f8 99 3e
       -0.2510674 0.3559611 -0.14933152 0.3007257
0002d0 58 b8 28 3e 57 60 d1 bd d8 7f ad 3e e0 b9 d3 be
       0.16476572 -0.102234535 0.338866 -0.4135275
0002e0 a9 eb c6 3d 58 32 91 3e 46 d5 68 3d de c1 b7 be
       0.09712917 0.28358722 0.05684402 -0.35890096
0002f0 43 79 27 be eb 30 1c be b9 75 23 bb 11 51 58 3e
       -0.16354851 -0.15253036 -0.0024941994 0.21124674
000300 a5 21 29 be c0 6f ac bd 82 d4 25 be b6 26 d0 3e
       -0.1651674 -0.08419752 -0.16194347 0.40654534
000310 b1 fe d6 3d 74 16 01 bd 1a 40 c1 bd 8e 94 0b be
       0.10497797 -0.031515554 -0.094360545 -0.13630888
000320 70 ba 1b 3e 4e aa b0 3e 5d 9b 3b 3e 7c 42 a5 be
       0.15207839 0.34504932 0.18320985 -0.32277286
000330 5d 5b 1b 3c 14 6c ab bc 04 6c 13 3d b8 97 ec 3e
       0.009482232 -0.02092556 0.035991684 0.46209502
000340 40 e8 c4 bd 0b 58 82 bd a4 53 5c 3e 1c 84 f0 bd
       -0.09614611 -0.06364449 0.21516281 -0.11743948
000350 cb 3b c5 3e 05 b6 8e be 5b af a8 bd 47 c5 1d be
       0.3852218 -0.27873245 -0.082365714 -0.15407287
000360 ef 7a 5e be 87 29 15 3e 7b e3 97 be 12 4b f2 bd
       -0.21726583 0.14566623 -0.2966574 -0.11830725
000370 c2 70 aa 3d 4e e6 1b 3e 5f f0 1d be 34 d1 80 be
       0.08322288 0.15224573 -0.15423726 -0.2515961
000380 f0 59 21 be ed 0d 29 bc 32 57 41 3e 0c 04 cb 3c
       -0.15756965 -0.010318262 0.18880919 0.024782203
000390 cb af a1 be 6d 1f 88 be 98 93 e3 bd d3 73 93 3e
       -0.31579432 -0.26586476 -0.11112136 0.28799304
0003a0 7c a1 94 3e 97 0b 80 3d 2e 56 b0 3d ec c6 75 3e
       0.29029453 0.062522106 0.086101875 0.24001664
0003b0 9d 3c 1b 3d 53 f5 c0 3c 1e 8b 9b be 98 e2 b2 3d
       0.037899602 0.02355448 -0.30379575 0.087346256
0003c0 83 48 25 3d b6 97 a1 3e 63 77 a7 3e 63 3d 49 3e
       0.040352356 0.3156106 0.32708272 0.19652323
0003d0 5c b5 0d 3f e6 88 59 be bb 8e a9 bd 4c e8 99 3d
       0.5535486 -0.21243629 -0.08279177 0.0751501
0003e0 42 e5 b5 be 4d 3e 09 be a0 ff 83 be de 8d ea 3d
       -0.35526472 -0.13402672 -0.25780964 0.1145284
0003f0 6f 19 b9 bc 3f 3d 00 be 73 f1 ad be 13 97 49 3e
       -0.022595135 -0.12523364 -0.33973274 0.19686536

bias f4 [32]
000000 44 86 5c be 72 a5 9a bd 13 da 10 bc 8d 65 2c bd
       -0.21535593 -0.075510874 -0.008841055 -0.042089034
000010 28 40 a9 bd 79 f5 31 3e a2 92 f2 bc 9b 25 26 bd
       -0.0826419 0.17378797 -0.029610936 -0.040563207
000020 a9 19 69 be 99 fd 98 3d 32 7e 20 be 39 66 ee bd
       -0.22763695 0.07470245 -0.1567314 -0.11640591
000030 ec 42 1b 3d a0 30 d9 bc a1 23 df bc 16 27 3c 3e
       0.03790562 -0.026512444 -0.027238669 0.18374285
000040 61 4d c2 bd 0d a0 80 bc ad fc 11 be 82 86 17 be
       -0.09487415 -0.015701318 -0.14256544 -0.14797404
000050 d7 98 34 bc 48 98 56 bb 30 48 2b bd 31 bf a1 bd
       -0.011022768 -0.0032744575 -0.04181689 -0.07897795
000060 19 42 b8 3d 26 c1 53 bd e1 be 67 3d ba 72 32 3d
       0.08996982 -0.051697873 0.05657852 0.043566443
000070 9b 10 60 be 76 a6 25 3c 80 f9 26 be ee 56 2f be
       -0.21881334 0.010110488 -0.16306114 -0.17123005

weight f4 [32, 32]
000000 45 db e8 bd 79 11 9c be 82 97 72 bc b5 14 be bd
       -0.11369947 -0.3048208 -0.01480663 -0.09281293
000010 62 a1 e4 bd 4b 68 ea bb fe fa ec bd 3e 82 38 bd
       -0.11163594 -0.007153546 -0.115713105 -0.045046084
000020 21 87 16 be 5d f5 9c bc 84 59 95 be b8 0b 91 be
       -0.14699985 -0.019159967 -0.29169858 -0.28329253
000030 ee df fb 3d 41 69 f6 bc ac 69 44 be 2c 8c 5c 3d
       0.122985706 -0.030079486 -0.19180936 0.053844616
000040 14 35 51 be 9c 90 83 3d 87 44 2c bc 55 62 92 be
       -0.20430404 0.064240664 -0.010514385 -0.28590646
000050 59 2e c8 3b 5f 7f b0 be 9d 65 1e 3e 85 35 76 be
       0.0061090407 -0.34472176 0.1546845 -0.24043854
000060 44 cd d3 bd 84 c7 8b be 50 13 bd be fe a0 73 be
       -0.10341886 -0.27300656 -0.36928797 -0.23791882
000070 a4 de 0e bd cf 5b 4b 3e 20 29 5e bd a4 e6 74 be
       -0.034880295 0.19859241 -0.05423844 -0.23916107
000080 d9 d2 1a 3d 33 1c 7b bd dc 18 69 bd 8e cb 72 be
       0.037798736 -0.06130619 -0.056908473 -0.23710462
000090 04 ba b3 bd 3d 41 30 3c 86 85 87 bd 59 6c 63 be
       -0.08775714 0.0107577415 -0.066172644 -0.222093
0000a0 b8 d5 93 bd c4 15 2f bd 2f 19 86 be 43 bc ff bd
       -0.07218498 -0.042745367 -0.2619109 -0.1248708
0000b0 94 ff 9d 3b 16 18 38 bd 72 f8 1f be b5 98 ce bd
       0.004821727 -0.044944845 -0.15622118 -0.1008772
0000c0 f4 ef e5 3d 07 7e 52 be 12 93 ea 3c f7 70 71 be
       0.11227408 -0.20555888 0.028634582 -0.23578249
0000d0 6c 81 11 be 6c a3 e7 bd a1 8a b4 bd 2c 9e 82 3d
       -0.14209527 -0.11310467 -0.08815504 0.06377825
0000e0 90 4e b6 3d e8 ba c7 bd d0 93 58 bd 52 26 6e bb
       0.08901703 -0.097524464 -0.05287534 -0.0036338759
0000f0 f0 3f 02 be 0d b5 e1 3d b8 e5 4e 3d 47 12 70 be
       -0.12719703 0.11020861 0.050512046 -0.23444472
000100 f6 45 ba be 6d c6 c4 3d 50 00 28 be 5a a7 47 be
       -0.363815 0.09608159 -0.16406369 -0.19497433
000110 9e 2b 69 be 03 10 a0 3d 8a f4 0c 3e 5b 48 cb 3b
       -0.22770545 0.07815554 0.13765159 0.006203694
000120 49 f7 6b 3d c6 02 2c be 88 c4 74 bd 0b 4e 8c 3d
       0.057608876 -0.16797933 -0.05975774 0.06850823
000130 93 68 07 3c 8b 7b f1 bd fd 60 1b 3d eb e4 e0 be
       0.0082646785 -0.11791142 0.037934292 -0.4392465
000140 d0 81 9d 3d fa 71 84 be 02 17 35 bd 15 f6 04 bd
       0.076907754 -0.25868207 -0.044211395 -0.032461245
000150 5c 0f a3 be 5b 47 74 3c 24 90 15 bd 99 9c 03 be
       -0.31847656 0.014909591 -0.036514416 -0.12852706
000160 35 0c 22 3e 08 b1 92 3e 02 89 89 bb bc 6b 5b be
       0.15824969 0.2865069 -0.004197241 -0.21427816
000170 4b b8 ed be 5b a7 80 bd c2 e4 c2 3d da 9b eb bc
       -0.46429667 -0.062819205 0.09516288 -0.02876084
000180 35 ed 0c be a9 13 64 3e a2 9d 0f 3e 04 60 ff bd
       -0.13762362 0.22273125 0.14024976 -0.124694854
000190 34 c6 1c 3e de 0c d1 bd 25 f6 b6 bd e3 b4 92 bc
       0.15309983 -0.10207532 -0.08933667 -0.01790852
0001a0 20 10 a0 be 0b 8a d4 3d 6d 10 8c be 25 41 9b 3d
       -0.31262302 0.10377892 -0.27356282 0.07580785
0001b0 b7 9f aa be a6 5b 8f bd 7d 83 63 3c e8 5a 58 bd
       -0.33324978 -0.069999024 0.01388633 -0.05282107
0001c0 79 f5 ce 3c 4c a3 19 bb cd 15 19 bd 14 f0 79 3d
       0.025263535 -0.002344328 -0.037374306 0.061019972
0001d0 b9 db 82 3d ba 65 17 bb 48 94 ed 3d 1b 73 60 3d
       0.06389565 -0.0023101405 0.11600548 0.054797273
0001e0 d4 ac a0 bc a2 cc 7f be 62 94 65 3d 81 a6 f2 bd
       -0.01961366 -0.24980405 0.056049712 -0.11848164
0001f0 02 eb 11 3e 51 42 1a 3e bf 6c 4f 3d 77 e7 3e be
       0.14249805 0.1506436 0.050640818 -0.18642984
000200 6c b2 c2 bd 12 60 30 be ba 7e 92 be b1 f8 57 3e
       -0.095066875 -0.17224148 -0.2861231 0.21090962
000210 f2 12 d9 bb 08 e9 b4 bd 9f 59 c4 be 8d 30 b4 be
       -0.006624573 -0.0883351 -0.38349625 -0.3519329
000220 fc ec 73 3c d7 e4 25 3d ba 18 d1 bd 91 dc 51 bd
       0.014888044 0.04050144 -0.10209794 -0.05123574
000230 33 8a 2a be 9e b6 36 bd 1d 5e 29 be b1 ca b3 bd
       -0.16654281 -0.04460775 -0.16539808 -0.08778895
000240 1c 8f 81 3e f9 14 85 be b4 ee 90 3d 34 b6 b4 bd
       0.25304496 -0.25992563 0.07076779 -0.08823815
000250 45 6c f2 3d a9 11 c6 bd d5 62 f3 3b 21 63 0a bf
       0.11837057 -0.09671337 0.007427553 -0.5405751
000260 90 0e 80 3e 21 f6 04 be 24 fd 43 3d c7 17 14 be
       0.2501111 -0.12984516 0.047848836 -0.14462195
000270 e6 d1 08 be 19 8a 47 b9 63 e3 b2 be 45 44 f0 3d
       -0.1336132 -0.00019029564 -0.34939107 0.117317714
000280 e0 d3 5f be 1c 6b 5c be 4c f0 4d be bb bd d2 bd
       -0.21858168 -0.21525234 -0.20111197 -0.102900945
000290 03 d3 b1 3b 8d 0b bc 3d a3 50 5f 3d 11 f4 0b be
       0.005426766 0.09181891 0.05452026 -0.13667323
0002a0 6c 9e 0e be 29 34 43 be 9b d6 91 3e 89 ab 3c be
       -0.1392762 -0.19062866 0.28484043 -0.1842481
0002b0 ae ca 4d 3d 87 10 26 be 27 cf 83 be 03 d5 07 3e
       0.05024212 -0.16217242 -0.25743982 0.13264851
0002c0 f6 66 e7 bc 51 3f a0 bd a3 fa 12 be 94 79 4c 3c
       -0.028247338 -0.07824577 -0.14353423 0.012480158
0002d0 f2 cb c5 3a 64 29 33 bd 58 12 91 3d a1 a6 5d 3d
       0.0015090688 -0.043740645 0.07083577 0.054113988
0002e0 98 f8 06 3e da 26 31 3c 1a 38 9c be e7 31 09 be
       0.13180768 0.010812486 -0.30511552 -0.13397942
0002f0 9a 3d f0 bd 09 36 ec 3d 90 50 04 3d 8d dc cc 3d
       -0.117304996 0.11533744 0.032303393 0.10003004
000300 31 1d 2c be 53 ea 8d 3d 87 2a 8f 3e b3 b8 24 3e
       -0.1680801 0.069294594 0.27962133 0.16086082
000310 12 b0 2a bd dd e6 d0 bd 85 a6 b0 be f2 05 1d bd
       -0.04167182 -0.10200284 -0.34502044 -0.038335748
000320 67 a6 54 be 70 2e 1f 3e db 45 1e be 3e 8f 51 bd
       -0.20766602 0.15545058 -0.15456335 -0.051161997
000330 84 51 10 3e b2 33 41 bd 90 a1 7c 3c f7 73 11 3e
       0.14093596 -0.04716844 0.015419379 0.14204393
000340 9a f6 8a 3b 6b 68 bd be de 35 db 3d 9c ec a4 bd
       0.004240823 -0.36993727 0.10703634 -0.08052942
000350 01 b3 8f 3e 9f 14 b6 bd ba 36 4c 3e c4 00 cd be
       0.28066257 -0.08890652 0.19942752 -0.40039647
000360 e2 b9 ca 3d d0 86 67 be 2a aa 0a 3d c4 be 9d 3d
       0.098987356 -0.2261002 0.033853687 0.07702401
000370 c3 43 66 bd 3b 21 4f 3d 48 c6 48 be 97 c2 22 3e
       -0.056216966 0.0505688 -0.19606888 0.15894543
000380 96 3f 87 be b2 63 8c bd 48 a3 9b 3d 9d 07 29 be
       -0.264157 -0.06854953 0.07599503 -0.1650681
000390 7d c8 c3 3d e8 a3 fa 3d fd 3a 27 be 3c 95 34 bd
       0.095597245 0.12238294 -0.16331096 -0.044087633
0003a0 d4 91 2a 3d 76 a0 bb bd 3c ad 33 3e 16 07 29 be
       0.04164298 -0.09161465 0.17546552 -0.1650661
0003b0 08 a1 3c be 86 4f 41 be cb b4 fc bd 87 57 82 bd
       -0.18420804 -0.18877992 -0.12339171 -0.06364351
0003c0 c6 5d f7 3c a7 d1 52 3e fd 39 ce 3b af 76 96 be
       0.030196082 0.20587789 0.006293534 -0.29387423
0003d0 f6 fa 13 be d4 42 3f be fb d3 ea 3d d6 36 b6 bd
       -0.14451203 -0.18677837 0.11466213 -0.08897178
0003e0 09 84 f0 bb 40 c5 9d bd 2a f9 66 be 77 73 2d be
       -0.0073399586 -0.07703638 -0.22555986 -0.16938578
0003f0 92 25 50 3c e6 d2 0e 3e 00 4c 03 3d c5 dc 61 bd
       0.01270427 0.13947639 0.0320549 -0.055142183

bias f4 [32]
000000 4d 0e e9 be 0c 50 a5 3d 14 28 02 3e 74 02 34 be
       -0.45518723 0.08071908 0.12710601 -0.17579061
000010 ec 23 bb 3d d3 af 5c be b3 a3 cb bd 32 63 51 be
       0.09137711 -0.21551447 -0.099433325 -0.20447996
000020 bc d7 78 3c c7 cb d0 bd db 9d 5c be 7c 8f 4a be
       0.015188154 -0.101951174 -0.21544592 -0.19781297
000030 a6 81 c9 3d b7 15 04 3e 76 fb 28 3d c6 1e cc bd
       0.098391816 0.12898909 0.041255437 -0.09966807
000040 1b 30 8c 3e b7 4d b7 bd 9f c9 ab 3d f2 c0 ab bc
       0.27380452 -0.0895037 0.083880655 -0.020966027
000050 88 1c 70 be 09 58 a6 3d 06 47 62 bd 2a ef 87 bd
       -0.23448384 0.0812226 -0.055243514 -0.06637414
000060 2d d5 fc bd 68 3a 8c 3e ef 95 1e bd 76 64 33 be
       -0.123453476 0.2738831 -0.038717207 -0.17518792
000070 12 1a 7c bd 78 54 93 3e 68 ed 16 bd 3b 72 72 be
       -0.0615483 0.28775382 -0.036847502 -0.23676388

weight f4 [32]
000000 5b c6 79 3f eb 25 83 3f 06 90 91 3f 1f f8 84 3f
       0.9756829 1.0245947 1.1372077 1.038822
000010 a1 15 87 3f 99 ee af 3f 02 eb 6a 3f 6e d0 73 3f
       1.0553476 1.3744689 0.91764843 0.95239913
000020 60 bd 61 3f ad ea 80 3f 90 e9 65 3f 43 e2 71 3f
       0.8817959 1.0071617 0.89809513 0.94485873
000030 bf c9 5f 3f 56 f7 83 3f b6 4c 74 3f ac 44 68 3f
       0.87417215 1.0309856 0.9542955 0.90729785
000040 e0 69 88 3f 98 7f 83 3f f8 e7 8b 3f 3b f0 7f 3f
       1.065731 1.0273314 1.0930166 0.9997594
000050 d2 9f 63 3f 2f f4 66 3f 94 30 8f 3f d2 f2 87 3f
       0.8891574 0.90216345 1.11867 1.0620978
000060 95 47 76 3f 88 29 51 3f fb 0f 76 3f 1a e6 81 3f
       0.96202976 0.81703997 0.96118134 1.0148346
000070 e1 fc 88 3f df a4 83 3f f6 43 87 3f 86 ae 8b 3f
       1.0702173 1.028469 1.0567615 1.0912635

bias f4 [32]
000000 0f f8 a5 3d 05 b5 b4 bc 48 da 11 3e 91 55 75 3e
       0.08103954 -0.022058973 0.14243424 0.23958422
000010 4d 6d a3 3c 7b 55 a2 3d 7e 89 c5 bd 5d ea e7 3d
       0.01994958 0.0792646 -0.09645365 0.11323998
000020 e5 b7 00 3d 59 b3 35 3e f9 04 a5 be 68 6f 36 bb
       0.031425375 0.17744197 -0.32230356 -0.00278374
000030 2e 8f df bd b1 7c 62 3d 39 00 6d 3c 8d a7 b1 bd
       -0.10915981 0.055294696 0.014465385 -0.08674536
000040 fc 60 d9 3d 8c 8a 76 bd d5 71 15 3e ea a2 84 3d
       0.106142014 -0.060190722 0.14594205 0.06476386
000050 e0 49 66 bb 76 5f f4 3d 5d 1d 15 3e 68 1c 6f 3c
       -0.0035139248 0.1193227 0.14561982 0.014594175
000060 be 4e 16 be 78 d1 47 bd 62 06 ca bd cb d0 41 3d
       -0.14678475 -0.04878375 -0.09864499 0.04731826
000070 28 7f 87 3d aa 19 fd 3d 4f e2 90 3d 5d 7d 4f 3e
       0.0661605 0.12358411 0.07074415 0.20262666

running_mean f4 [32]
000000 93 a6 1b 3a 4d 87 45 3f 13 19 84 3f 17 96 fb 3d
       0.0005937602 0.7715958 1.0320152 0.12284487
000010 40 83 b1 3e bf f3 47 3f 5e 52 a1 3e 29 6a 94 3e
       0.34670448 0.781063 0.31508154 0.28987244
000020 80 cf 07 40 3a cb 94 3f 4c 7b 07 3d 29 dd dd 3c
       2.1220398 1.162452 0.03307657 0.027082996
000030 a4 48 fc 3f 89 41 6c 3f e3 60 97 3e 3f 16 f5 3e
       1.9709668 0.922875 0.29566106 0.47868535
000040 21 c2 8d 3f 54 0c a2 3e a5 79 d8 3e ed b6 92 3e
       1.1074868 0.3165003 0.42280307 0.28655186
000050 4c 34 ef 3e bf 98 80 3f 8e d8 1c 3f d8 bd 09 3d
       0.46719587 1.0046614 0.61267936 0.033628315
000060 8b 1d 67 3d 77 0b 59 3f 43 03 9d 3e ef c3 ea 3d
       0.05642466 0.8478312 0.3066655 0.114631526
000070 e7 f5 8e 3e f7 09 b0 3f 07 c3 2d 3e 88 da 25 3e
       0.27921984 1.3753041 0.16968928 0.16196644

running_var f4 [32]
000000 12 27 65 3c 96 40 8f 41 5a 62 b2 41 52 43 ef 3f
       0.013986366 17.906536 22.298023 1.869242
000010 9f 8d 50 3e 68 db 7c 41 2c cd c5 3f 3c 0d cc 40
       0.20366524 15.803566 1.5453238 6.3766155
000020 7c 05 ce 42 11 6e 0c 42 ba bf d4 3e a2 4f 27 3e
       103.01071 35.107487 0.41552526 0.16338971
000030 af 27 ce 42 eb 4d e2 41 19 47 df 3e b8 e7 90 40
       103.07751 28.288046 0.4360893 4.528286
000040 ba 84 a0 41 6c f6 1c 41 2f 1d fe 40 c8 e6 a3 40
       20.064808 9.810162 7.9410625 5.1219215
000050 f2 7c 53 41 33 de 2a 42 1c bc 57 41 a9 42 8d 3e
       13.218004 42.71699 13.483425 0.2758992
000060 69 e4 fd 3d dc cb 2a 41 fc 85 d2 3e 82 64 c1 3e
       0.123970814 10.67477 0.41117847 0.37771994
000070 31 32 8f 40 7a 91 3c 42 10 69 87 3f d2 9c 7c 40
       4.474877 47.142067 1.0578938 3.9470716
